…
    "model.add(Dense(units=128,activation='relu'))\n",
    "model.add(Dense(units=6,activation='softmax'))"
   ]
  },
  {
   "cell_type": "code",
   "execution_count": 35,
   "id": "bf9d6c19",
   "metadata": {},
   "outputs": [
    {
     "name": "stdout",
     "output_type": "stream",
     "text": [
      "Model: \"sequential_3\"\n",
      "_________________________________________________________________\n",
      " Layer (type)                Output Shape              Param #   \n",
      "=================================================================\n",
      " conv2d_2 (Conv2D)           (None, 62, 62, 32)        320       \n",
      "                                                                 \n",
      " max_pooling2d_2 (MaxPooling  (None, 31, 31, 32)       0         \n",
      " 2D)                                                             \n",
      "                                                                 \n",
      " conv2d_3 (Conv2D)           (None, 29, 29, 32)        9248      \n",
      "                                                                 \n",
      " max_pooling2d_3 (MaxPooling  (None, 14, 14, 32)       0         \n",
      " 2D)                                                             \n",
      "                                                                 \n",
      " flatten_1 (Flatten)         (None, 6272)              0         \n",
      "                                                                 \n",
      " dense_4 (Dense)             (None, 128)               802944    \n",
      "                                                                 \n",
      " dense_5 (Dense)             (None, 6)                 774       \n",
      "                                                                 \n",
      "=================================================================\n",
      "Total params: 813,286\n",
      "Trainable params: 813,286\n",
      "Non-trainable params: 0\n",
      "_________________________________________________________________\n"
     ]
    }
   ],
   "source": [
    "model.summary()"
…
    "model.add(Dense(units=128, activation='relu'))\n",
    "model.add(Dense(units=6, activation='softmax'))"
   ]
  },
  {
   "cell_type": "code",
   "execution_count": 37,
   "id": "e3d9caa3",
   "metadata": {},
   "outputs": [
    {
     "name": "stdout",
     "output_type": "stream",
     "text": [
      "Model: \"sequential_3\"\n",
      "_________________________________________________________________\n",
      " Layer (type)                Output Shape              Param #   \n",
      "=================================================================\n",
      " conv2d_2 (Conv2D)           (None, 62, 62, 32)        320       \n",
      "                                                                 \n",
      " max_pooling2d_2 (MaxPooling  (None, 31, 31, 32)       0         \n",
      " 2D)                                                             \n",
      "                                                                 \n",
      " conv2d_3 (Conv2D)           (None, 29, 29, 32)        9248      \n",
      "                                                                 \n",
      " max_pooling2d_3 (MaxPooling  (None, 14, 14, 32)       0         \n",
      " 2D)                                                             \n",
      "                                                                 \n",
      " flatten_1 (Flatten)         (None, 6272)              0         \n",
      "                                                                 \n",
      " dense_4 (Dense)             (None, 128)               802944    \n",
      "                                                                 \n",
      " dense_5 (Dense)             (None, 6)                 774       \n",
      "                                                                 \n",
      " dense_6 (Dense)             (None, 128)               896       \n",
      "                                                                 \n",
      " dense_7 (Dense)             (None, 6)                 774       \n",
      "                                                                 \n",
      "=================================================================\n",
      "Total params: 814,956\n",
      "Trainable params: 814,956\n",
      "Non-trainable params: 0\n",
      "_________________________________________________________________\n"
     ]
    }
   ],
   "source": [
    "model.summary()"
…
